Week1/simple_nn.pth (torch, 10908 bytes, 6 tensors)

weight f4 [25, 37]
0	0x3c125113	0.008930462
1	0xbd9f75f4	-0.0778617
2	0x3e0a77fe	0.13522336
3	0x3e242283	0.1602879
4	0x3dd17f49	0.10229356
5	0xbc03b762	-0.008039327
6	0x3c34c288	0.011032708
7	0xbd30a3a0	-0.043124795
8	0xbdabb46f	-0.08384024
9	0xbd84c715	-0.064832844
10	0xbdda842d	-0.10669742
11	0x3c8d0dde	0.017218526
12	0x3d882cc6	0.06649165
13	0xbe163c53	-0.1467145
14	0xbe0adcad	-0.13560744
15	0x3c642462	0.01392469
16	0xbde5b634	-0.11216393
17	0xbd60ebd7	-0.054912414
18	0xbd4a3da8	-0.049375206
19	0x3db24a9a	0.08705635
20	0x3c0d0212	0.008606451
21	0xbd92c01b	-0.071655475
22	0xbe0edb4a	-0.1395084
23	0x3c3315c8	0.010930486
24	0xbcaa2e2f	-0.020773975
25	0x3e27fd34	0.16405183
26	0x3c896b69	0.01677485
27	0xbde7bde9	-0.11315519
28	0xbd6cb213	-0.057787012
29	0x3ccabaf3	0.024747347
30	0x3e17bf6c	0.14819115
31	0xbe09d8ae	-0.13461563
32	0x3e029501	0.12752153
33	0xbe1f0dbb	-0.15532582
34	0xbd481852	-0.04885132
35	0xbd5c3eff	-0.053771015
36	0x3de345f9	0.110973306
37	0x3daf9228	0.08572799
38	0xbdeba7cd	-0.11506615
39	0xbd600c0d	-0.054698993
40	0x3dbad68c	0.09122953
41	0x3dedab04	0.11604884
42	0xbd49b99b	-0.049249273
43	0x3c376f17	0.0111959195
44	0xba41d23e	-0.0007393694
45	0x3d9e0656	0.07716052
46	0xbe0b45db	-0.13600866
47	0xbddb1a97	-0.10698431
48	0x3db7590f	0.089525335
49	0x3ca30596	0.019900125
50	0x3d8b8740	0.06812906
51	0x3da92c36	0.08260386
52	0x3d1a1eda	0.03762708
53	0x3d0507ed	0.03247826
54	0x3de48bda	0.11159487
55	0xbcd4c403	-0.025972372
56	0x3b9b72bf	0.0047439034
57	0xbdb1b9ef	-0.08678042
58	0x3c6e966a	0.014562229
59	0xbc7aab95	-0.015299697
60	0xbce7e80c	-0.02830889
61	0x3db295a4	0.08719948
62	0x3e106cb0	0.14103961
63	0x3d35f383	0.044421684
64	0x3da06353	0.078314446
65	0x3e163f2b	0.14672534
66	0x3de3f6b3	0.111310385
67	0x3dc455f0	0.09586704
68	0x3d8bdfe6	0.068298146
69	0x3cf3fe68	0.029784396
70	0xbe048538	-0.12941444
71	0x3de503a6	0.111823365
72	0xbc112dae	-0.008860989
73	0x3e20f694	0.15719062
74	0xbe043399	-0.12910308
75	0xbc932f8c	-0.017967008
76	0xbd3c6f88	-0.046004802
77	0xbda797f4	-0.0818328
78	0x3dee6e20	0.116420984
79	0xbe0a0b64	-0.13480908
80	0x3dcca986	0.099932715
81	0xbdd25947	-0.102709346
82	0xbda69905	-0.08134655
83	0xbe23ec70	-0.16008162
84	0xbbbbdd71	-0.005733185
85	0xbcb247bf	-0.021762727
86	0xbe07e67a	-0.13271514
87	0xbd7ceaa6	-0.061747216
88	0x3d68c4db	0.05682836
89	0xbd3e3ce0	-0.046444774
90	0xbdcdae97	-0.10043066
91	0xbe21ab89	-0.15788092
92	0xbe12cf12	-0.14336804
93	0x3dca08e0	0.09864974
94	0xbc879381	-0.016549828
95	0xbd8a74c0	-0.067605495
96	0x3e18d717	0.149258
97	0x3cecb731	0.028895946
98	0xbe05b532	-0.13057402
99	0x3d0db162	0.034592994
100	0xbda353bd	-0.07974956
101	0x3d89b953	0.06724801
102	0xbdbaa75e	-0.09113954
103	0x3d1723a1	0.036899213
104	0xbd5bd965	-0.05367412
105	0x3dc21571	0.09476746
106	0xbc3e18bb	-0.011602576
107	0xbc9bd055	-0.019020239
108	0xbb24b0c7	-0.0025129782
109	0xbdac67d3	-0.084182404
110	0x3cbf9c38	0.02338992
111	0x3cb19ad7	0.021680279
112	0xbdd31508	-0.10306746
113	0xbd8a9f99	-0.06768722
114	0xbe0a0456	-0.13478217
115	0xbe103723	-0.14083533
116	0x3dbfe255	0.09369341
117	0x3db95492	0.09049334
118	0x3d8ccf78	0.06875509
119	0xbd219fbb	-0.03945897
120	0x3e0b7705	0.13619621
121	0xbe022c0b	-0.12712114
122	0xbe0fa8ee	-0.14029285
123	0xbda9a38b	-0.082831465
124	0xbcdb8fcf	-0.026801972
125	0xbde92624	-0.11384228
126	0x3de48f14	0.111601025
127	0x3d008fc0	0.03138709
128	0x3bb64f64	0.0055636633
129	0x3db97e0a	0.09057243
130	0x3d351c17	0.04421624
131	0x3d91bcbf	0.071160786
132	0x3e1f13c3	0.15534882
133	0xbda278fe	-0.07933234
134	0x3d44a163	0.048005473
135	0xbdf2f856	-0.118637726
136	0x3cb3ccf6	0.021948319
137	0x3c704ad0	0.014666274
138	0xbdd935c2	-0.106059566
139	0xbc99e962	-0.018788043
140	0xbe2776c0	-0.16353893
141	0x3c183449	0.0092898095
142	0x3ce289cc	0.027653597
143	0x3dd72791	0.105055936
144	0x3be9ed9e	0.007138922
145	0x3bc80eb9	0.0061052707
146	0xbe0a1bd2	-0.13487175
147	0xbe227a45	-0.15866955
148	0x3db022df	0.08600401
149	0xbb982958	-0.0046436004
150	0xbd3a1166	-0.04542675
151	0x3d9bf4f6	0.07615082
152	0x3e24d40a	0.16096511
153	0x3da49dfe	0.08037947
154	0xbda16b57	-0.078818016
155	0xbe1b1bd1	-0.1514733
156	0x3e216d47	0.15764342
157	0xbe0ef38d	-0.13960095
158	0x3e124d32	0.1428726
159	0x3e283ef2	0.16430262
160	0xbe0b0d97	-0.13579403
161	0x3c939557	0.018015547
162	0xbdb7f569	-0.08982355
163	0x3df41e52	0.11919846
164	0x3d4d5afd	0.0501356
165	0xbe07cf18	-0.13262594
166	0xbe1eb8aa	-0.15500131
167	0x3d44f1de	0.048082225
168	0xbd919fb6	-0.071105406
169	0xbd3a18e5	-0.045433898
170	0x3cd8ee60	0.026480854
171	0x3df649d7	0.120258026
172	0x3bfb92df	0.0076774205
173	0x3e227d50	0.15868115
174	0x3dbded4f	0.09273779
175	0x3e0106fd	0.12600322
176	0x3c9b4b44	0.018956788
177	0x3de55b46	0.1119905
178	0xbe04d95b	-0.1297354
179	0x3c2cc433	0.010544824
180	0xbdc5a191	-0.09649957
181	0x3d2a44c5	0.04156949
182	0x3e222e7e	0.15838048
183	0xbd7dfe94	-0.062010363
184	0x3a88204e	0.0010385604
185	0xbe0f5038	-0.13995445
186	0xbe0723e8	-0.13197291
187	0x3dd4494f	0.10365545
188	0x3d9f41ee	0.07776247
189	0x3d0ceaba	0.03440354
190	0x3d18346e	0.037159376
191	0xbde366cd	-0.11103592
192	0x3dc24b65	0.094870366
193	0xbb7c544e	-0.0038502398
194	0xbe26adaf	-0.16277193
195	0x3dc97256	0.09836261
196	0xbd1b6965	-0.03794231
197	0xbd36f4a7	-0.044666912
198	0x3e251aa9	0.16123451
199	0x3d621a16	0.05520066
200	0xbdb4f6e7	-0.088361554
201	0x3d98c4ae	0.07459389
202	0xbdc10411	-0.09424604
203	0xbd722733	-0.059119415
204	0xbdbfd2aa	-0.09366353
205	0x3d9c30c0	0.07626486
206	0x3e00693b	0.12540142
207	0xbd46af8c	-0.04850726
208	0xbd457d6f	-0.048215326
209	0xbd9344ee	-0.07190882
210	0x3dc70123	0.09717014
211	0x3dd64b78	0.10463613
212	0x3d8aee30	0.06783712
213	0x3d902a4f	0.0703932
214	0xbd2ba7fe	-0.041908257
215	0x3d433bec	0.047664568
216	0xbd849a66	-0.06474762
217	0x3d4dfa90	0.050287783
218	0x3ccf9211	0.025338205
219	0x3c8621a5	0.016373465
220	0x3db5f894	0.08885303
221	0x3cce23b4	0.025163509
222	0x3e1e92f4	0.15485746
223	0x3d3e9938	0.04653284
224	0xbda69bb8	-0.0813517
225	0x3c986c35	0.018606285
226	0x3d0eba3a	0.03484557
227	0x3dbb5e05	0.09148792
228	0x3dc25942	0.09489681
229	0xbd5ec7fb	-0.054389935
230	0xbdc99f1b	-0.098448
231	0x3e15f724	0.14645058
232	0xbdc659b0	-0.09685075
233	0xbd07dd53	-0.033170056
234	0xbdfa9e54	-0.1223723
235	0xbde9fdf5	-0.114253916
236	0x3b5b5bb0	0.0033471398
237	0x3d98a043	0.074524425
238	0x3d1e965d	0.038717616
239	0xbc14cc29	-0.009081879
240	0x3dcbfbba	0.099601224
241	0xbd479fd5	-0.048736412
242	0x3daf6cef	0.08565699
243	0xbdf8affc	-0.12142941
244	0x3e002281	0.12513162
245	0x3e15518a	0.14581886
246	0x3c945a46	0.018109452
247	0x3e1e261b	0.15444224
248	0xbd300139	-0.042969916
249	0xbd9c976a	-0.076460674
250	0xbdd8f870	-0.10594261
251	0x3de47448	0.111549914
252	0xbe1e2aa3	-0.15445952
253	0xbe0ef353	-0.13960008
254	0x3cdd2c63	0.026998704
255	0xbda92e53	-0.08260789

bias f4 [25]
0	0x3dc49d96	0.0960037
1	0xbdc4d8a8	-0.096116364
2	0x3b98ffe5	0.004669177
3	0xbce37cdc	-0.027769499
4	0xbdb9eeee	-0.09078775
5	0x3df18710	0.11793339
6	0x3da5a0bc	0.08087298
7	0x3db6e7cd	0.08930931
8	0xbbf3394b	-0.0074226013
9	0x3d113131	0.035447303
10	0x3e251dfc	0.1612472
11	0xbdc16b52	-0.09444298
12	0xbd8c72cf	-0.068578355
13	0x3c2b4bde	0.0104551
14	0xbe1b9781	-0.15194513
15	0xbe237b11	-0.15964915
16	0x3e1cbaf4	0.15305692
17	0xbc6bad5c	-0.014384594
18	0x3de5f04f	0.11227476
19	0xbd084a7a	-0.03327415
20	0x3e0e80f2	0.13916376
21	0xbde8d215	-0.11368195
22	0x3dcc0b5a	0.09963103
23	0xbd27fcc8	-0.041012555
24	0xbddb9121	-0.107210405

weight f4 [25, 25]
0	0xbe33dc03	-0.17564397
1	0x3e1c4897	0.15262066
2	0xbda5780a	-0.08079536
3	0x3e1334b0	0.14375567
4	0xbe3fbdfa	-0.18724814
5	0xbe04c966	-0.12967452
6	0x3cbf90b9	0.023384439
7	0x3e379fd8	0.1793207
8	0x3df6167e	0.12016009
9	0x3e4ab2ab	0.19794719
10	0xbd98ea0d	-0.07466517
11	0xbd805cdf	-0.06267714
12	0xbe0cb952	-0.13742569
13	0x3e2cafcf	0.1686394
14	0x3e159d63	0.1461082
15	0x3dcd2ec8	0.100186884
16	0x3dac5170	0.084139705
17	0xbe38d542	-0.18050101
18	0xbddf63a7	-0.10907679
19	0xbe3d42e5	-0.1848255
20	0xbd1bec4e	-0.038067155
21	0xbe337853	-0.17526369
22	0x3d907e95	0.070553936
23	0xbe032f60	-0.12811041
24	0x3cce413c	0.02517759
25	0xbe2c3c32	-0.16819838
26	0xbdc30885	-0.09523109
27	0x3d160753	0.03662808
28	0x3c811e8d	0.015761638
29	0x3e23940d	0.15974446
30	0x3dc2c07b	0.09509369
31	0xbe25f843	-0.16207986
32	0xbdbc0b30	-0.09181821
33	0xbde01369	-0.10941202
34	0xbe3e73c7	-0.18598853
35	0x3d9bb0dd	0.07602093
36	0xbe21bb22	-0.15794042
37	0x3e3ab315	0.18232377
38	0x3c27db80	0.010245204
39	0x3e4cb075	0.19989188
40	0x3bf783f5	0.0075535723
41	0x3c9fef73	0.019523358
42	0xbe2fbae0	-0.17161131
43	0xbc1311cb	-0.00897641
44	0x3e155f35	0.145871
45	0xbe108b6a	-0.14115682
46	0x3e0bd452	0.13655213
47	0x3ddeedf0	0.10885227
48	0x3dbb4de7	0.09145718
49	0x3dddbd36	0.10827105
50	0x3dacce63	0.08437803
51	0x3d4f7e99	0.050657842
52	0x3de6acfd	0.11263464
53	0xbe43207f	-0.19055365
54	0xbe013ec5	-0.12621601
55	0x3deee13f	0.11664056
56	0x3e06efdb	0.13177435
57	0xbcf0f3e7	-0.029413177
58	0x3dee2e11	0.1162988
59	0xbcd4dacd	-0.025983239
60	0xbc160880	-0.0091573
61	0x3e24162f	0.16024087
62	0x3d9d485d	0.07679818
63	0x3e21d307	0.15803157
64	0x3dfe8ff1	0.124297984
65	0x3d900f57	0.07034176
66	0x3e19671f	0.14980744
67	0xbd51e0ad	-0.05123966
68	0xbe048a87	-0.12943469
69	0xbe404eeb	-0.18780105
70	0xbe1f9ebf	-0.155879
71	0x3d969a46	0.07353644
72	0x3e480dbb	0.19536488
73	0xbd19f76d	-0.03758948
74	0x3d223928	0.03960529
75	0xbde1b4da	-0.11020823
76	0xbdad518c	-0.084628195
77	0x3e1ebd88	0.15501988
78	0x3df2bbba	0.11852212
79	0xbe2a4ab5	-0.16630061
80	0xbd8a8f41	-0.06765605
81	0x3e483b63	0.19553904
82	0x3e0f6a57	0.14005409
83	0x3dfebf2c	0.12438807
84	0xbe046b7d	-0.12931629
85	0x3cc7a027	0.024368359
86	0xbd613373	-0.054980706
87	0xbcf7cd5a	-0.030249286
88	0xbd8ab850	-0.06773436
89	0xbe1da0ad	-0.15393324
90	0xbde8b8ff	-0.1136341
91	0x3e3510b2	0.1768215
92	0xbe39c5cf	-0.18141864
93	0xbcb44a15	-0.022007981
94	0x3e2c19d8	0.16806734
95	0x3e39c7db	0.18142645
96	0x3c66af5a	0.014079893
97	0x3dba2f06	0.09091
98	0xbe2725bb	-0.16322987
99	0x3d3fe529	0.046849404
100	0xbde16987	-0.11006456
101	0xbdf27a75	-0.11839763
102	0x3d5c3eba	0.05377076
103	0x3e0e496a	0.13895193
104	0xbd1cfaf0	-0.03832525
105	0xbda5de17	-0.08099001
106	0x3dfec7dd	0.12440465
107	0xbdc64fdd	-0.096832015
108	0xbd052c27	-0.03251281
109	0xbe225c13	-0.15855436
110	0xbdd3c5fa	-0.103404954
111	0x3ca3d20c	0.01999762
112	0x3d0dabc7	0.034587648
113	0xbd8605ea	-0.06544097
114	0xbde4b44d	-0.11167202
115	0x3db23271	0.08701027
116	0xbe42e8af	-0.19034074
117	0xbdecdf47	-0.11566024
118	0x3e11024f	0.14161037
119	0xbc4e9680	-0.012609124
120	0xbd71ffe9	-0.059081946
121	0x3d2ef404	0.04271318
122	0x3e34047d	0.17579837
123	0xbda50943	-0.08058407
124	0xbd6ef9f8	-0.058343858
125	0xbd993c00	-0.07482147
126	0xbd17669d	-0.036963094
127	0xbe1afc72	-0.15135363
128	0x3de0e327	0.10980826
129	0xbe085500	-0.13313675
130	0x3e451e98	0.19249952
131	0x3d8b10c6	0.06790309
132	0xbd5f9a7a	-0.05459068
133	0xbd6adcc0	-0.05733943
134	0x3e43eaa3	0.19132476
135	0xbe25068d	-0.1611578
136	0x3e41b82c	0.18917912
137	0xbdabaf6d	-0.08383069
138	0xbd8f4097	-0.069947414
139	0x3e4a52b1	0.19758107
140	0x3d99e5a6	0.07514505
141	0xbe0c5bc7	-0.13706885
142	0xbe0ec828	-0.13943541
143	0xbd3b6ca9	-0.045757923
144	0xbe3e1907	-0.18564235
145	0xbe24229a	-0.16028824
146	0x3e0f6e1e	0.1400685
147	0xbe30a05b	-0.17248671
148	0x3dec284a	0.11531122
149	0xbb2b1819	-0.0026106893
150	0x3da49140	0.08035517
151	0xbde0d85e	-0.10978769
152	0xbe33cd82	-0.17558864
153	0xbdb28247	-0.08716255
154	0xbd0b115b	-0.0339521
155	0x3e340d0d	0.17583103
156	0xb9c5cc79	-0.00037727112
157	0x3e4bb250	0.1989224
158	0x3d60c807	0.05487826
159	0xbd93e913	-0.0722219
160	0xbe03c1f8	-0.12866962
161	0xbd326254	-0.043550804
162	0xbd980be7	-0.07424145
163	0x3e268943	0.16263299
164	0x3bfd6441	0.0077328985
165	0xbe1ec011	-0.15502955
166	0xbe227c3b	-0.15867703
167	0xbc1fd4e7	-0.00975535
168	0x3d87d80d	0.06633005
169	0x3d722e27	0.059126046
170	0xbe025417	-0.1272739
171	0x3e0382fa	0.12842932
172	0xbd9d5d9f	-0.076838724
173	0x3df5ee10	0.120082974
174	0x3e52c684	0.2058354
175	0x3e194113	0.1496623
176	0x3e23a096	0.15979227
177	0x3e3e8c7f	0.18608283
178	0x3d6b33cd	0.057422448
179	0xbd24757b	-0.0401511
180	0xbe076cb2	-0.13225058
181	0x3dfa69ca	0.12227209
182	0x3dbcb830	0.092148185
183	0xbe027f03	-0.12743764
184	0x3dcc1d93	0.09966578
185	0xbd11e9c0	-0.035623312
186	0xbb9d9684	-0.0048092026
187	0x3e045f68	0.1292702
188	0x3e239288	0.15973866
189	0xbdf68696	-0.12037389
190	0xbc68012b	-0.014160435
191	0x3e133add	0.14377923
192	0xbbf18533	-0.007370615
193	0x3c70d3dc	0.014698949
194	0x3e1dad43	0.15398125
195	0x3d3a436a	0.045474447
196	0xbd4d6bd4	-0.05015166
197	0x3da7f007	0.082000785
198	0x3d3bc387	0.045840766
199	0x3df16efa	0.11788745
200	0xbdccbe7a	-0.09997268
201	0x3de65b45	0.11247877
202	0x3d21d7c0	0.039512396
203	0xbdc28013	-0.094970845
204	0xbe204e11	-0.1565478
205	0xbe288a31	-0.16458966
206	0x3e145a10	0.14487481
207	0xbe39752b	-0.18111102
208	0x3d495dcc	0.049161717
209	0x3e16715b	0.14691679
210	0xbd720f2d	-0.059096504
211	0x3d53950c	0.051655814
212	0x3dc068a3	0.09394958
213	0xbd4046da	-0.04694257
214	0xbe082f2c	-0.13299245
215	0xbe11837d	-0.14210315
216	0xbdd01c40	-0.10161638
217	0xbb5c2533	-0.0033591508
218	0x3e0fd12c	0.14044636
219	0xbdd63d43	-0.104609035
220	0x3e01317c	0.12616533
221	0xbdcfb5c0	-0.10142088
222	0xbe12c167	-0.1433159
223	0xbdbb7c17	-0.09154528
224	0xbd989e7a	-0.07452102
225	0xbb8d279a	-0.0043076994
226	0xbc9a97b1	-0.01887116
227	0x3dbc07cd	0.091811754
228	0xbdd3343a	-0.10312696
229	0x3aa228a3	0.001237173
230	0x3e371a69	0.17881168
231	0xbd347f2c	-0.044066593
232	0xbe0c9acf	-0.1373093
233	0x3d0dbbc1	0.034602884
234	0xbbf92ecd	-0.007604456
235	0xbe2da3e0	-0.16957045
236	0x3e0fe161	0.14050819
237	0xbd4ef9b3	-0.0505311
238	0xbdf45bf0	-0.11931598
239	0xbe0c33d1	-0.13691641
240	0x3d274074	0.04083295
241	0xbe44303b	-0.19159023
242	0xbd3118f3	-0.043236684
243	0xbe14ce21	-0.14531757
244	0xbdfdaea0	-0.12386823
245	0x3dea8d15	0.114526905
246	0xbd84cd37	-0.06484454
247	0xbcc59c21	-0.0241223
248	0x3e337ab5	0.17527278
249	0xbd1c1587	-0.038106468
250	0xbe2c989b	-0.1685509
251	0x3dc1bc3c	0.09459731
252	0xbd219480	-0.03944826
253	0x3e44b370	0.19209075
254	0xbcb4b5a7	-0.022059275
255	0x3e058c08	0.13041699

bias f4 [25]
0	0xbd26fe3b	-0.040769797
1	0xbdf536a6	-0.11973314
2	0x3e1705a5	0.14748247
3	0x3dbdb03c	0.0926213
4	0xbda8a7fa	-0.08235164
5	0x3db108ed	0.086442806
6	0xbc8c3803	-0.017116552
7	0xbe15970c	-0.14608401
8	0x3d284fc6	0.041091703
9	0x3e262a39	0.16227044
10	0xbdc7e0a2	-0.09759642
11	0x3d806d60	0.062708616
12	0x3e1ab3b4	0.15107614
13	0xbc8806ce	-0.016604807
14	0x3dcc1746	0.099653766
15	0xbe2bd006	-0.16778573
16	0xbe17be38	-0.14818656
17	0x3b361d3c	0.002778842
18	0x3e3ba666	0.18325195
19	0x3e37b3fc	0.17939752
20	0x3e2710aa	0.1631495
21	0xbde466fb	-0.111524545
22	0x3d1c4571	0.038152162
23	0x3e25060f	0.16115592
24	0xbe0f90b7	-0.14020048

weight f4 [4, 25]
0	0x3e2eda8c	0.17075557
1	0x3d951bc6	0.07280688
2	0x3e269b82	0.16270259
3	0x3e8a398b	0.26997027
4	0x3e127095	0.14300759
5	0x3e6bc4ed	0.2302434
6	0x3d4ffba4	0.050777093
7	0x3da35267	0.079747014
8	0xbdcb78c9	-0.09935147
9	0x3d7883ef	0.060672697
10	0x3c8b13b2	0.016977165
11	0xbdaa3e29	-0.08312637
12	0xbdc0eddb	-0.09420367
13	0x3e0a38fc	0.134983
14	0x3dbd8787	0.092543654
15	0x3e376108	0.17908108
16	0x3df8daf1	0.12151135
17	0xbd9a8c9b	-0.075463496
18	0x3b775aae	0.0037743258
19	0x3d4efacb	0.050532144
20	0x3e727bb0	0.23679996
21	0xbb88af5c	-0.004171295
22	0xbc26ddd3	-0.010184723
23	0x3d9c2fad	0.07626281
24	0x3e4e843a	0.20167628
25	0x3c85eaad	0.016347254
26	0xbe8dc506	-0.2768938
27	0xbdf4b291	-0.11948121
28	0xbe5fb60a	-0.21846786
29	0xbe28c2a3	-0.16480498
30	0xbdfd2c7b	-0.123619996
31	0xbe37a73b	-0.17934887
32	0xbe433050	-0.19061399
33	0x3d260282	0.040529735
34	0xbd21b686	-0.03948071
35	0xbdc01c50	-0.093804
36	0xbe0efd07	-0.1396371
37	0xbe64117e	-0.22272298
38	0xbe731615	-0.23738892
39	0xbd8a9f37	-0.06768649
40	0xbd716e65	-0.05894317
41	0xbe19b9e0	-0.15012312
42	0xbe91dc8b	-0.28488573
43	0xbda4e034	-0.08050576
44	0xbe1134ca	-0.14180294
45	0x3d864935	0.06556932
46	0xbc2ee612	-0.01067497
47	0xbe1825e4	-0.14858204
48	0xbe325cce	-0.17418215
49	0xbe9b421c	-0.30323875
50	0xbe7f1e4b	-0.249139
51	0xbdaa7570	-0.08323181
52	0x3dd375e0	0.10325217
53	0xbe029ffd	-0.12756343
54	0xbdc2b4ac	-0.09507117
55	0xbe27bd36	-0.16380772
56	0xbe330c85	-0.17485245
57	0xbdce477c	-0.10072228
58	0xbe4228fc	-0.18960947
59	0xbdfb93d4	-0.12284055
60	0xbe5e6a16	-0.21720156
61	0x3d5b67a7	0.053565647
62	0x3dfcdbcf	0.12346613
63	0xbba52b0f	-0.0050405334
64	0xbe80bc75	-0.2514378
65	0xbd15a482	-0.03653384
66	0xbc054aca	-0.008135507
67	0xbdae8eab	-0.085233055
68	0xbe0fb95c	-0.14035553
69	0xbe7b56b7	-0.24544798
70	0xbd80fe3e	-0.06298493
71	0xbd793316	-0.060839735
72	0xbe8679d0	-0.2626481
73	0xbbf18049	-0.007370029
74	0xbe8586d8	-0.2607944
75	0xbdf83788	-0.12119967
76	0x3e4f7b20	0.20261812
77	0x3e9011c0	0.28138542
78	0x3e482b8b	0.1954786
79	0xbdc7b833	-0.0975193
80	0x3d97205d	0.0737922
81	0xbd6d1f1b	-0.057890993
82	0xbcae89b4	-0.021305896
83	0xbdbdc044	-0.092651874
84	0xbd87ea00	-0.06636429
85	0x3e3bd004	0.1834107
86	0xbd091258	-0.03346476
87	0x3e55f0e5	0.20892675
88	0x3d36ff54	0.044677094
89	0x3d274ce2	0.040844806
90	0xbd590c59	-0.05299029
91	0xbc165c40	-0.009177268
92	0x3dd8d45c	0.10587379
93	0x3cce606f	0.025192467
94	0x3da384b6	0.07984297
95	0x3e082ce2	0.13298371
96	0x3e1c9dea	0.15294614
97	0xbd457b52	-0.04821331
98	0xbdd40ead	-0.10354362
99	0xbcf827b9	-0.030292379

bias f4 [4]
0	0x3cc8e8df	0.024525104
1	0xbeca52af	-0.39516208
2	0xbe5686ed	-0.20949908
3	0x3e01af7d	0.126646
